RotatedMNIST_model_basic.pth (torch, 70599 bytes, 9 tensors)

0.weight f4 [16, 1, 3, 3]
000000 8f 8d a7 bc 2c b7 a2 bc e5 98 71 bb 80 22 e4 3c
       -0.020453243 -0.019862734 -0.0036864814 0.027848482
000010 1b c6 e3 bb e5 01 95 bb 74 b4 db bc 14 94 66 bc
       -0.0069511062 -0.004547345 -0.026819445 -0.0140733905
000020 9d 94 db 3b e9 82 8c 3d 22 d1 74 bd 57 35 a9 bd
       0.0067010657 0.06860907 -0.059769757 -0.08262127
000030 2d 6f 8b 3d c8 41 41 3d 2d a5 1b bc 95 14 37 3c
       0.068083145 0.047181875 -0.00949983 0.011174341
000040 5c 96 8d 3d 4c 71 ff 3d 57 2e 0c 3d b2 a6 0f 3d
       0.069134444 0.124727815 0.03422388 0.035071082
000050 03 cc b4 3c 7b 28 a4 bc 0e 27 63 3b b2 bc a5 bd
       0.022069937 -0.020038834 0.003466073 -0.080926314
000060 bd 30 a1 bd 1d 88 b7 3c fd 6d c7 3d d8 29 54 bc
       -0.07870624 0.022403771 0.097377755 -0.012949429
000070 c0 6e d9 bc 00 93 fe bc 87 c7 0d bd bc 5d 52 3c
       -0.026542068 -0.031075954 -0.034614112 0.012839731
000080 5e 76 1c bc 27 29 80 bc d3 2c 4f 3a 6d 64 c8 3c
       -0.009549705 -0.015644623 0.00079031027 0.02446195
000090 81 5e 36 3d 2b bc b1 bb 0f 64 bf 3c 8e 91 18 3e
       0.04452372 -0.0054240427 0.023363141 0.14899275
0000a0 90 f6 c6 3c 8c 55 54 bd 0f bf a9 3d 91 10 8a 3d
       0.024287492 -0.051839396 0.08288395 0.06741441
0000b0 24 76 17 bd ad 04 4a 3c 07 be 83 bc 83 8c 0b bd
       -0.036977902 0.012330216 -0.016081823 -0.03406955
0000c0 f3 ef 8b 3d bd 78 4a bd ac 8d ed bc 50 fe f5 3b
       0.06832876 -0.04943155 -0.028998218 0.007507123
0000d0 b6 30 95 3c 9c 9c 6b 3b 17 f4 86 bc 43 fc 18 bc
       0.018211704 0.00359515 -0.016473813 -0.009337488
0000e0 e5 ee 2e bd 91 3f 1b bd 6a 5a d3 3b 7f 3e 1b bd
       -0.042708296 -0.03790242 0.006449987 -0.037901398
0000f0 fd 5c cf b9 6c eb 4d bc 3e 44 b3 ba 68 30 9f bc
       -0.00039551398 -0.012568336 -0.0013676954 -0.019432262
000100 d4 cf 86 bb 65 a4 18 3c 58 53 36 bc 1a 10 c1 3b
       -0.0041141305 0.009316538 -0.011128269 0.005891812
000110 c6 c9 10 3c bc e7 b1 3b ed 3b 1b bd f6 1f b5 3d
       0.008837169 0.005429236 -0.037898947 0.08843987
000120 ec d3 24 3d f4 dd a2 3c d8 f7 16 bc f5 38 52 3d
       0.040241167 0.019881226 -0.009214364 0.05132385
000130 01 cf 94 3c 00 3a db 3c 30 c9 54 bc a7 af cc 3d
       0.018165113 0.026761055 -0.01298742 0.099944405
000140 2b 60 e1 3c b2 f1 a0 3c 8d 9e f2 3c f0 7e 9b 3d
       0.027511677 0.0196465 0.029616619 0.07592571
000150 ed 32 af bb f6 d6 49 bb f2 b8 98 3d 30 84 b4 3d
       -0.005346647 -0.0030798293 0.074571505 0.08814275
000160 3c e3 74 bc 50 b1 87 3b e7 a4 71 bd 19 d5 31 be
       -0.014946755 0.0041410103 -0.058995154 -0.17366447
000170 f7 90 a9 bd 6b 25 45 bd 1b 1e d8 bc ea f8 55 3d
       -0.08279603 -0.048131388 -0.026381543 0.052239336
000180 f2 a5 82 bc 2b 64 6b 3d f0 b5 ee 3d 4c ae 8b 3c
       -0.01594827 0.057468574 0.116557956 0.017050885
000190 5e 60 e0 bc 8b 3d 33 bc 7b 23 20 bc 9b 65 e5 b9
       -0.027389701 -0.010939966 -0.009774084 -0.00043753986
0001a0 69 6b 0f bd c6 f4 77 3c 1a 73 90 bc 75 19 89 bc
       -0.035014544 0.015134042 -0.01763301 -0.016735772
0001b0 0c fa f5 3c 4e 6b b5 3c 4c 74 2a bc 80 bc a8 bd
       0.030026458 0.022145893 -0.010403704 -0.082390785
0001c0 57 b7 0f 3d 55 6d 27 3c be df 0c be 26 7e c8 bc
       0.035086956 0.010218938 -0.13757226 -0.024474215
0001d0 4e e3 f6 3d 16 4f 42 be 0d 2e 38 be a5 d1 c2 bd
       0.12055074 -0.18975481 -0.17986317 -0.09512643
0001e0 ba c3 9e 3d 9b 52 d1 bd 86 66 2d be 1a dc b4 3d
       0.07752176 -0.10220834 -0.16933641 0.088310435
0001f0 fc d3 7d 3d 17 73 8a be 46 c6 39 bc 5a c2 2b 3d
       0.061969742 -0.27040932 -0.011338776 0.041933395
000200 82 87 e8 bb bf 3a 5b bd 0d f7 5f 3d cd c6 ad bd
       -0.007096232 -0.05352282 0.054678965 -0.08485184
000210 07 56 5c bd 78 31 0a 3d 85 93 bb 3d 6e b2 cd 3c
       -0.05379298 0.033738583 0.091589965 0.025109496
000220 0a 4c aa 3d 6e c1 2d 3e 19 21 88 bd f1 1b eb bd
       0.083152846 0.16968319 -0.06646938 -0.11479939
000230 03 e1 40 3d 51 e6 02 bd d8 99 2b be b6 1b 48 be
       0.047089588 -0.031957928 -0.16757905 -0.19541821

0.bias f4 [16]
000000 6d 78 01 be 41 6b 13 be 1e 68 cb 3c 07 50 a5 be
       -0.12643595 -0.14396383 0.02482992 -0.3228762
000010 66 f4 eb 3d 8a ea 80 3d 6b e9 72 be a2 0d bc 3d
       0.11521225 0.06294735 -0.23721854 0.09182288
000020 8f 02 0c 3d 0b 84 fc 3d 4e 73 d9 3d d2 1f 92 be
       0.034182128 0.12329873 0.10617696 -0.28539902
000030 68 5d 6a 3c e3 2e c5 3d 37 d1 fc bb 54 ab 0f be
       0.014304496 0.096280836 -0.00771537 -0.140302

3.weight f4 [32, 16, 3, 3]
000000 f9 6e 8a 3c f8 78 e3 3b da 36 a6 3c ec 50 42 3c
       0.016898619 0.006941911 0.020289827 0.011860114
000010 02 23 88 3c 2f b9 05 3d 52 68 a9 bc c0 2b 8c bc
       0.016618256 0.032647308 -0.020679627 -0.017110705
000020 a1 d1 e1 3c ab 25 0c 3e 05 4a 83 3d 96 34 6c 3c
       0.02756578 0.13686244 0.064106025 0.014416834
000030 ff 19 e3 bc 33 a6 4a bd 4a 4d 95 bb 48 de 57 be
       -0.027722357 -0.049474906 -0.0045563327 -0.21080887
000040 a8 3b 80 be dc 31 4f be 6d 0c 16 3d a2 ab d2 3c
       -0.25045514 -0.20233864 0.036632944 0.025716607
000050 b5 0b d8 bb 72 ca 85 3d 33 e3 43 3d 7e d7 7a bd
       -0.0065931925 0.06532754 0.047824096 -0.061240666
000060 b4 f9 04 be 42 77 0c bd db f1 df bd 49 e1 94 bc
       -0.12985879 -0.03429342 -0.10934802 -0.01817383
000070 7a 0e 92 3b e4 a0 de 3c 6f 64 4c 3c d8 83 c5 3c
       0.004457292 0.027176328 0.012475117 0.02411072
000080 c4 8a 31 3c 5b c0 ba 3c fa 90 8e 3c 53 48 0c 3c
       0.010836307 0.0227968 0.017403115 0.008562165
000090 c8 65 a1 3d 06 42 30 3d 0a fb 82 3d 84 b4 d1 bb
       0.07880741 0.043031715 0.06395538 -0.006399693
0000a0 02 03 c6 3d 90 1d fb bb 8e ec 29 be b0 95 82 bd
       0.096685424 -0.0076634362 -0.16594145 -0.06376207
0000b0 f2 56 f5 bd 82 c8 6f 3d c6 68 ad bb 60 3b bd 3a
       -0.11979474 0.05854083 -0.005292031 0.0014437251
0000c0 a2 57 2e bd c9 05 1c 3d 0f dd 71 3d fe f4 e4 bc
       -0.042564042 0.038091455 0.05904871 -0.027948853
0000d0 15 b1 96 bd e5 e1 3a bd b0 c1 11 bd 13 30 da 3b
       -0.073579945 -0.045625586 -0.035585105 0.006658563
0000e0 b4 ec 39 bc ef d7 d3 3b 48 b9 8c 3c 7b 46 86 3c
       -0.011347938 0.0064649503 0.017178193 0.01639103
0000f0 70 ac 52 3c 60 e1 9c bb 63 2a 8c 3c c0 ea f8 3c
       0.012858495 -0.004787609 0.017110055 0.030385375
000100 9e 25 9f 3c a7 0b 8b bd cc 04 f2 3c 66 39 02 3c
       0.019427117 -0.06789332 0.029543303 0.007948255
000110 e8 4f 96 bd ec 71 bf bd b3 77 d6 bd 9b b6 b5 bd
       -0.0733946 -0.09347901 -0.104720496 -0.0887272
000120 00 5d 8f 3d 29 97 93 3d 13 3f b1 3c 42 df 1d bc
       0.0700016 0.07206566 0.021636521 -0.009635748
000130 21 1d 39 3d b6 5e b0 bc 2d 31 64 be fe 89 ec bd
       0.045193795 -0.021529537 -0.22284384 -0.115497574
000140 17 7f 17 be e5 06 0a 3d d6 de 2c 3d 16 f2 d9 bc
       -0.14794575 0.03369798 0.0422047 -0.026604693
000150 8c 49 0c 3d 8f 23 3d 3d e6 92 25 bd 4b 9e ed bd
       0.034249827 0.04617649 -0.040423296 -0.116024576
000160 db 6e ba bd e4 3f 07 be cd ab 8f bc 8b d5 cb bc
       -0.09103175 -0.13207966 -0.017537976 -0.024882099
000170 bf 55 5e bd 54 04 5b bd 78 d0 25 bd 96 2d f0 3c
       -0.054280993 -0.053470924 -0.040482014 0.029318612
000180 65 06 da bc b8 34 cb bc da 4e 3d bb 2e 46 b4 bb
       -0.026614377 -0.024805412 -0.002888611 -0.00550153
000190 d6 8e 1d bb 3f da 95 3c 9b 52 29 bc 6e 4c a2 3b
       -0.0024041436 0.018292544 -0.010334636 0.004952959
0001a0 d3 5f 43 3c 80 fb 20 bc 42 dc 0e bc aa 1b bf bc
       0.011924702 -0.009825587 -0.008719506 -0.023328621
0001b0 eb 9e 97 3d 21 0e 21 3c e8 b6 09 bd 7f 48 d9 3d
       0.07403358 0.009830029 -0.0336217 0.10609531
0001c0 54 a3 39 3c ca 91 70 bd 7a de 84 bd 3d da 48 bd
       0.011330444 -0.058732785 -0.064877465 -0.049036253
0001d0 7c b0 b1 bd e8 9c 98 bc 6b ef 85 bd 4b e3 c7 3d
       -0.0867624 -0.018629506 -0.06539806 0.097601496
0001e0 e2 c1 a4 bd d0 d6 5d bd 82 3f 80 3d 8f d1 c8 3d
       -0.08044793 -0.05415994 0.06262113 0.09805595
0001f0 98 f1 18 3d 2c a8 62 3d 03 50 51 3d 4f 72 9b 3d
       0.037339777 0.055336162 0.051101696 0.07590162
000200 c6 73 7c bd 31 5b 99 bc 50 d4 df bc d3 ba 6f bb
       -0.061633848 -0.018720241 -0.027322918 -0.0036579862
000210 3f 88 d8 bd 07 96 0a be 29 fc 24 be 96 dd 30 3d
       -0.10572862 -0.13533793 -0.16111816 0.04318007
000220 ee af 97 bc 7d de 88 ba ef 97 1d 3e d8 9f da 3d
       -0.018516507 -0.0010442283 0.1538999 0.10675019
000230 e8 45 93 bd 7d 3b 01 3d e8 a1 2c 3c e6 aa c6 bd
       -0.07191068 0.031550873 0.010536648 -0.09700565
000240 cb 9b 44 bd 49 13 79 bc 0e e4 78 bc 19 34 15 3d
       -0.04800014 -0.015202352 -0.015191091 0.036426637
000250 7c fa 42 bc 8e af 4c 3b 2f ca 5a bb a9 c7 c2 bc
       -0.01190054 0.0031232568 -0.003338467 -0.023776846
000260 07 2a f4 39 21 64 89 bc 12 13 f2 bb 67 1c 88 ba
       0.0004657062 -0.016771378 -0.0073875273 -0.0010384441
000270 a8 28 39 bd ec 40 e3 3c 51 f0 55 3b 0b 33 14 bd
       -0.04520479 0.027740918 0.003264446 -0.03618149
000280 cd 57 6d bd ee ae 8f bc 8b 4f 0f bd fa 89 05 bc
       -0.05794506 -0.017539468 -0.034987967 -0.008150572
000290 af 6f cb 3c a0 b3 cd bc 64 f8 36 bd ad f2 8d 3c
       0.024833528 -0.025110066 -0.044670478 0.01732763
0002a0 a5 88 d7 bc b0 55 1e bd cf 5d 74 3c fb 26 05 3b
       -0.026310274 -0.038655937 0.014914944 0.0020317424
0002b0 18 10 26 bb fa a8 97 bc fe a4 8d 3c 0e 63 37 3c
       -0.0025339182 -0.018513191 0.017290588 0.01119305
0002c0 bc b9 e9 bb 7f 54 08 3c 05 dd 00 3d 2e 64 34 bc
       -0.007132737 0.008320927 0.03146078 -0.011010213
0002d0 f1 2f 93 bc 52 c4 7a bc 02 e0 c1 3c 7f 10 3d bb
       -0.017967196 -0.0153055955 0.023666386 -0.0028848944
0002e0 f4 ff 89 bc 96 44 4a 3c 92 ae 92 bc 81 9e 4c bd
       -0.01684568 0.012345454 -0.017905507 -0.04995585
0002f0 3e 55 10 3b bd a5 ee bb 39 57 fa bc 79 79 43 bc
       0.0022023465 -0.007282941 -0.03055917 -0.011930817
000300 b2 ac a7 bc 66 f4 1d 3c 4b f3 54 3b 1c 3f 71 bc
       -0.02046809 0.009640789 0.0032493647 -0.014724519
000310 62 69 4b ba cc 5a 70 3c d4 14 6a bc a1 f5 68 bc
       -0.0007759539 0.014670085 -0.014287192 -0.014218719
000320 c3 89 9d 3c 49 98 00 bd dd c0 bc bb 95 c9 84 bc
       0.019230729 -0.03139523 -0.005760296 -0.016209403
000330 67 41 1d 3d fe 5d a2 bc f9 4e 93 3c 28 09 08 bc
       0.03839245 -0.01982021 0.017981993 -0.008302964
000340 4c 25 31 bd 46 be 3b bc 8b 43 3a 3a b5 28 57 bd
       -0.04324846 -0.011458939 0.00071054016 -0.052529056
000350 ab 8b 2c bc 93 fb c4 bc a4 dd b3 bc 94 45 93 3b
       -0.010531346 -0.024045741 -0.021956272 0.0044943783
000360 88 48 80 bc 64 08 4b bc d7 ae 53 bb 05 5c 93 3c
       -0.015659586 -0.012392137 -0.0032300258 0.017988214
000370 f9 bc ee bc f8 9d 46 bb e3 5a 95 bc df bc 75 bc
       -0.029142844 -0.003030656 -0.018231815 -0.014998644
000380 b7 5c 80 bc 04 29 2e 3c 94 de 1a bc 3b c0 6d 3b
       -0.01566921 0.010629896 -0.009452481 0.0036277908
000390 79 d8 67 bc 47 48 49 bd a5 af a1 bc e3 cb 72 bc
       -0.014150732 -0.049141195 -0.019737074 -0.014819118
0003a0 3f 1b 25 bd ba 30 3e 3b d7 38 ba 3c d9 7c 8d bc
       -0.040309187 0.0029020743 0.022732181 -0.017271446
0003b0 25 3a 74 3b 5c 7b 9d 3c 2e 86 f3 3b a2 90 86 3b
       0.0037266102 0.019223861 0.007431767 0.004106597
0003c0 0f 78 f7 bc 3a 0d 95 bb 57 b6 a7 3c 61 1b be 3c
       -0.030208616 -0.004548696 0.020472689 0.023206415
0003d0 d5 b1 e6 3c b4 c3 84 3c 14 a7 55 3a d2 4f a9 3a
       0.028160969 0.0162066 0.0008150202 0.0012917465
0003e0 04 6a 88 3c d9 2a 8a 3c a4 57 b5 3c 7b 9f 07 bd
       0.016652115 0.016866134 0.022136517 -0.033111077
0003f0 b5 4d 27 bc b1 da ae bc 9b 2c 2f bd 38 2d 1f bc
       -0.010211398 -0.021344515 -0.04276715 -0.009715371

3.bias f4 [32]
000000 3e ca 78 3c a4 8b 77 bd 96 78 21 bd fa 6b 37 3c
       0.015184937 -0.060435906 -0.03942164 0.011195177
000010 23 cb 84 bd 7e 80 a1 3d 61 70 20 bd 0c e4 88 bd
       -0.06484058 0.07885836 -0.039169673 -0.066841215
000020 15 90 8e bd 3b 38 e3 3b 93 0d d7 bc 7c 8c b6 3d
       -0.06961075 0.0069341934 -0.02625159 0.08913514
000030 ac 67 6e 3d e1 80 94 3d ee 13 68 3c cd 96 16 be
       0.058204338 0.07251144 0.014164908 -0.14705963
000040 9f ff 82 3d 95 77 e7 bd e4 3b 5b bd 26 97 32 bd
       0.06396412 -0.11302105 -0.053523913 -0.043601178
000050 70 6a d1 3c 97 65 dd bd b0 31 e0 ba 19 84 2d 3c
       0.025563449 -0.10810392 -0.0017104652 0.010590577
000060 6c 42 1d bd 27 d0 37 3c 7b 5b 81 3b 4a b3 20 3c
       -0.038393423 0.011219061 0.003947673 0.009808371
000070 01 18 23 bd be bd af bb 5e 3b 44 3c e4 03 4b ba
       -0.039817814 -0.005363195 0.011977045 -0.0007744415

6.weight f4 [32, 32, 3, 3]
000000 e2 00 7a bd 45 1b 69 3c 26 54 6b bc a1 50 57 3c
       -0.061036 0.014227693 -0.014363324 0.013141782
000010 72 e1 1f bd 72 74 a6 3d f7 f0 a1 3d f8 92 15 bb
       -0.03903336 0.08127679 0.079072885 -0.0022823196
000020 39 7a 0e 3b 19 e8 8c bd bc 63 ed bb 18 d2 a9 bc
       0.002174033 -0.068802066 -0.0072445553 -0.020730063
000030 dd 8b 98 bc 92 25 05 bd 72 91 e8 bc df 16 3b bb
       -0.01862138 -0.032506533 -0.028389666 -0.0028547568
000040 4a 8b 64 3d b2 b5 b6 bc 73 5b ef ba 8e 5c 25 bc
       0.0557969 -0.022303436 -0.0018261507 -0.010092868
000050 01 b6 e3 bc cf 5d a7 bc 50 44 0b 3d 69 b4 8e ba
       -0.027796747 -0.020430474 0.034000695 -0.0010887507
000060 a7 38 ac 3a 34 e7 42 3a 75 96 ff 3c ec 1f 0b bc
       0.0013139442 0.00074349646 0.031199673 -0.0084914975
000070 77 ff 1e 3d f5 07 af 3c e1 65 4b bb c5 f7 65 bc
       0.03881785 0.021366099 -0.0031036066 -0.014036124
000080 7a e5 ae 3c 7e e9 64 3c a0 06 a1 bc 7d ca ff 3c
       0.021349657 0.0139716845 -0.01965648 0.031224484
000090 fd b2 2b bc 9d c2 de bc 3d e3 4a bc cc 3a c8 3b
       -0.010479686 -0.027192408 -0.012383279 0.0061105248
0000a0 8c 5d ea bc 4e 19 1b 3c 5f a3 1f 3d 59 1d da bc
       -0.02860906 0.009466482 0.038974162 -0.026625322
0000b0 9e fc 7b bd cc 7c c3 bd 8b 0d c9 3d 24 bf a2 3d
       -0.06152021 -0.095452875 0.09817036 0.079466134
0000c0 7d 99 b7 bd c9 1e fa 3c b0 c0 5d bc ee 92 bb 3d
       -0.089648224 0.030532258 -0.01353471 0.09158884
0000d0 9f 10 03 3c 51 f8 71 3d 15 64 d5 bc 22 f8 de ba
       0.007999568 0.059074704 -0.0260487 -0.0017011205
0000e0 4e 7e 50 bc 02 82 f4 3c a0 3d 52 3c e5 70 a6 bb
       -0.012725426 0.029847149 0.012832075 -0.005079376
0000f0 f0 7c c4 3c bc d7 68 3c 87 0f b1 bb 27 96 0d 3d
       0.023985356 0.014211591 -0.0054034623 0.034567025
000100 30 de 02 bc 9d cc ad bc 03 d3 c0 3b 5b c6 4a bd
       -0.007987544 -0.021215731 0.0058845296 -0.049505573
000110 1e 4b aa 3c 98 60 4e bb 2f 54 99 bb 4c 58 c1 bc
       0.020787772 -0.003149068 -0.004679225 -0.023601674
000120 39 1a ce 3c 01 84 13 3d b9 b7 19 bc ce 1a e2 3c
       0.025158988 0.03601456 -0.009382182 0.027600672
000130 bf 8a ff bc 1b 82 27 bc 47 6a d2 bc 01 5c 35 bc
       -0.031194089 -0.010223891 -0.025685443 -0.011069299
000140 e0 b6 ac bd 5e 74 95 3c 8b b7 1c bd ea d5 bf bc
       -0.08433318 0.018243965 -0.038260978 -0.023417432
000150 6e 53 49 bd bb 2e 79 bb 77 58 22 3d bf a3 8d 3b
       -0.04915183 -0.0038022238 0.039635148 0.0043224986
000160 b1 b4 40 ba 9a 0e ff ba aa e1 61 3d 68 ea 96 ba
       -0.0007351144 -0.0019459308 0.05514685 -0.001151395
000170 69 05 b7 bc 78 82 69 3d d6 03 8f bc 77 9a 09 bd
       -0.022341447 0.05700919 -0.017457884 -0.033594575
000180 88 37 51 3c 3b ae ce bc 8d c9 de bc 37 1a 14 bd
       0.012769587 -0.025229564 -0.027195716 -0.036157813
000190 91 04 d5 bc 8c 94 9f 3d 4d f0 08 3b 0d 48 cf 3c
       -0.026003154 0.07792005 0.0020895184 0.025302911
0001a0 db 03 44 3d 64 21 47 3d 2c a9 73 bd 30 4c 7d bb
       0.04785524 0.04861583 -0.059487507 -0.0038650148
0001b0 c8 d7 be 3a 9d 37 b4 3c 4c 3e a2 3d 1d c5 b1 bc
       0.0014560157 0.021999175 0.079220384 -0.021700436
0001c0 2d df 80 3d fa ce 21 3d f9 6c bb 3d ad 22 f5 bb
       0.062925674 0.03950403 0.09151644 -0.0074809403
0001d0 15 8b de 3c 84 b2 44 3d e3 c6 52 3d 56 e3 2c bc
       0.027165929 0.04802181 0.051459204 -0.010552248
0001e0 20 18 2a 3c eb 64 be bc 73 cb 62 3c 52 45 9d bb
       0.010381728 -0.02324148 0.013842451 -0.0047995234
0001f0 0e dc 1f bd 75 e6 ae bd 65 9c d9 3c 6f 42 28 bc
       -0.03902822 -0.0854005 0.026563833 -0.010269745
000200 00 9b da 3c f6 fc ba bc a1 4a 02 3d 60 55 e6 3c
       0.026685238 -0.0228257 0.031809453 0.028116882
000210 cc 55 27 3d 64 ad b5 bc 68 24 3c 3d d3 c5 9d 3d
       0.040853307 -0.022177406 0.045933157 0.077037476
000220 18 48 e1 3c f1 04 35 3d 30 ca dc 3b c2 d3 4f 3d
       0.027500197 0.044194166 0.00673797 0.050739057
000230 a6 76 f0 3c c4 f3 03 bd a0 b3 b1 bc 01 3f 9b bd
       0.029353451 -0.032214895 -0.021692097 -0.075803764
000240 ab 8c 93 bd e2 82 8f 3d 12 c9 91 3c 22 57 38 bd
       -0.07204565 0.07007386 0.017796073 -0.04500497
000250 ba 5b 8e bc 9c 47 bd 3d 57 9f a1 bc a5 b0 09 3c
       -0.017377723 0.09242174 -0.0197293 0.008403932
000260 aa 4c f3 3d 6d 2b b6 3b 1d 95 e1 3b 0c e0 55 3d
       0.11879857 0.005559376 0.0068842308 0.05221562
000270 3f d0 ed bc 99 ee 69 bc 96 54 7e 3c 44 70 9f 3d
       -0.029029964 -0.0142780775 0.015523097 0.07785085
000280 1c 5c 7a bd 3b 81 70 bd 43 36 40 bb 62 e9 0f bd
       -0.061123 -0.058716994 -0.0029329218 -0.03513468
000290 0c 85 27 3d b4 fd 10 bd 50 bc 2a 3c 7f f5 d5 bc
       0.040898368 -0.0353982 0.010420874 -0.026118038
0002a0 f1 ff 95 bc 04 74 8c 3c 72 94 88 3c 5c 18 0c bd
       -0.018310519 0.017145164 0.016672347 -0.03420292
0002b0 d5 9f 29 3d c1 dc 56 3d 06 fc 87 bc df 57 b5 3d
       0.041412193 0.05245662 -0.016599666 0.08854651
0002c0 76 4f 22 bc 40 19 2f 3a 21 3d 1a bd 98 84 d8 bb
       -0.00990664 0.0006679483 -0.037655953 -0.0066076033
0002d0 d5 2d b4 3a 44 7f bb 3c 53 c0 0a 3c 65 c3 ed 3c
       0.0013746569 0.022887833 0.008468705 0.029023835
0002e0 f5 24 8f 3b 1f a9 7a ba ba c2 71 bc 24 11 3d 3c
       0.0043684193 -0.0009561944 -0.014755899 0.011539731
0002f0 af e7 34 bd 0d f2 84 3d 77 12 51 3d f7 b7 bc 3b
       -0.044166263 0.0649148 0.051043 0.005759235
000300 19 4b d4 3c 69 85 7f 3d a1 c4 72 3c b9 a8 ef bb
       0.025914716 0.06238309 0.014817388 -0.0073138145
000310 f9 75 08 bd 6b fc 29 3d aa 04 6a 3d fb e2 ba 3c
       -0.033315632 0.04150049 0.057133354 0.02281331
000320 f3 44 a1 3c 8b bb 0e bd 47 61 10 3c 8d 90 11 3d
       0.019686198 -0.034846824 0.008812255 0.035538245
000330 6e ab ff bc 59 7a bb 3c 79 d7 85 3b fd 33 29 3d
       -0.031209674 0.022885488 0.0040845242 0.041309346
000340 13 8c 9d 3d 36 79 be bc 17 bf dd 3c f4 44 e9 3c
       0.07692733 -0.023251157 0.027068658 0.028475262
000350 21 a0 32 3d 40 f4 c7 37 30 0d fc bc cc c3 ce bc
       0.043609742 2.3836386e-05 -0.030768007 -0.025239848
000360 c1 34 d8 bc b8 20 a1 bc 83 b9 79 bd c6 99 e9 bc
       -0.026392343 -0.019668922 -0.060967933 -0.028515708
000370 c6 2f 10 bd 14 26 4b bd 4a 27 7b bd 44 5f fc bc
       -0.03520181 -0.04959686 -0.061316766 -0.030807145
000380 76 9b 0c bd a2 ff 4a 3c bb 6f 3c bc 4e be 9e bc
       -0.034327947 0.012390049 -0.011501248 -0.019377854
000390 97 75 49 bc a6 72 11 3c 30 0d fb bb 32 c6 c4 3b
       -0.012296102 0.008877432 -0.007661484 0.006005072
0003a0 c6 6d 3f bc 13 d4 0a 3a f3 64 87 3d 30 8c 25 3d
       -0.011683887 0.0005295884 0.066110514 0.040416896
0003b0 1f a9 91 bd 1f d0 72 3d e5 d9 09 3c ad ed 1b 3c
       -0.071123354 0.05928051 0.0084137665 0.009517116
0003c0 31 e0 38 3c 55 15 38 3c 23 90 d9 bb a2 31 fe 3b
       0.01128392 0.011235555 -0.006639497 0.0077573815
0003d0 92 4f 08 3c 2d 27 0f 3c 7b 3d 37 3b 80 f2 fe bc
       0.008319752 0.008737368 0.002796023 -0.031121492
0003e0 4c c7 52 3b f8 67 c2 3c 50 a6 b6 3c 44 fc 22 bc
       0.0032162247 0.023731217 0.0222961 -0.00994784
0003f0 31 8f 4e 3d ee 14 47 bc 92 d7 9d bc 0b 0d 07 bc
       0.050429527 -0.012150986 -0.019267831 -0.008242856

6.bias f4 [32]
000000 75 88 b5 3d 97 b9 45 bc f8 de 1c 3c d6 49 1b 3e
       0.08863918 -0.012068174 0.009574644 0.15164885
000010 56 25 35 3d 3b 1f 9d bd 26 fc 6d bd ed ac e1 3c
       0.04422506 -0.07671972 -0.058101796 0.027548278
000020 f0 50 8f bc 76 f5 98 3c 35 d1 71 3c e7 9e 00 3d
       -0.017494649 0.018671732 0.0147593515 0.03140154
000030 db 0e 23 3d 10 29 7b bb 63 2b f9 3c 70 b5 26 3d
       0.03980909 -0.0038324036 0.030416196 0.040700376
000040 13 33 93 3c 62 d3 0c bd 91 4e 7e bd 15 aa 98 bc
       0.01796869 -0.034381278 -0.062086646 -0.018635789
000050 6f 5e b3 bd 69 af 87 3b bc b0 c3 3d 73 88 d0 3c
       -0.08758246 0.0041407836 0.09555194 0.025455689
000060 92 86 95 3c e7 e6 34 3b 13 b5 97 bd 45 63 83 3b
       0.018252645 0.0027603449 -0.07407584 0.0040096366
000070 ad 16 0b 3d f7 5f c6 bc ef 63 97 bd 71 a7 30 bc
       0.033957172 -0.024215681 -0.07392108 -0.010782109

9.weight f4 [10, 288]
000000 6b d1 03 bd ea 80 8b 3d e3 00 3b 3e 2d 0d 1b 3e
       -0.03218214 0.06811698 0.18262057 0.15141745
000010 b5 5d c0 bc a4 3f a3 bd 8b 57 8c 3b f3 ec 18 be
       -0.023482183 -0.07971123 0.004282897 -0.14934139
000020 c9 78 0a 3e ce e7 73 be 77 62 31 3c e8 f9 f2 3c
       0.13522638 -0.23818895 0.0108266985 0.02966018
000030 7a cf 05 be a9 47 a3 bc 5e d8 4f be 18 e1 9b ba
       -0.13067427 -0.019931631 -0.20297381 -0.0011892645
000040 94 b4 2c be b1 e6 a5 be d2 e4 27 be 12 b8 6b bd
       -0.1686576 -0.32402566 -0.16395882 -0.05754859
000050 42 7a 98 bd 1f cb cd 3d 0f 94 d5 3d 78 fa 6b bc
       -0.07445194 0.10048508 0.104286306 -0.014402978
000060 cc 3a 1f be d2 b5 6d be 55 dd 04 be fd 99 cf bd
       -0.15549773 -0.2321389 -0.12975056 -0.10136793
000070 16 64 c7 bd 18 ee e6 bc ce 89 25 3e ef eb 57 be
       -0.09735887 -0.028189704 0.1616585 -0.21086095
000080 d2 34 c4 3c 03 ea af bb bd 5c 85 3c ee aa 24 3c
       0.023950968 -0.0053684725 0.016279573 0.010050518
000090 ca 1f d5 bb 41 a9 be 3d 9b d5 07 bd 52 28 9d bd
       -0.0065040337 0.09309626 -0.033162694 -0.07673706
0000a0 d9 4d 73 bb b9 05 14 3e a0 4b 19 be 67 f3 30 3e
       -0.0037125258 0.14455308 -0.14970255 0.1728035
0000b0 59 4e b1 3d ae bf bf 3d 42 9d 6b 3d 15 98 93 3e
       0.08657522 0.09362732 0.05752302 0.28826967
0000c0 73 97 12 be 13 f5 42 be 7b 23 55 bb 3b 4a a5 bd
       -0.14315586 -0.19038801 -0.0032522369 -0.08070799
0000d0 11 99 30 3e 10 6c 01 3d 64 0a c4 3c 23 32 c9 3d
       0.1724589 0.031597197 0.023930736 0.09824016
0000e0 b0 88 2f be 80 3e 4b be 17 d7 5c bc 6c 6b 16 3e
       -0.17141986 -0.1984806 -0.013479016 0.14689416
0000f0 d0 85 2b bd 30 54 7d 3c 2e be f3 bd 83 97 e5 bd
       -0.04187566 0.015461966 -0.11901508 -0.11210539
000100 2d 1c 9a 3d cc cb 10 3e 3f 32 5c be a4 4b 7a 3d
       0.07524905 0.14140242 -0.21503542 0.061107293
000110 89 ed aa 3d e6 fc ad bd a0 85 e6 bd f6 db 95 bd
       0.083460875 -0.08495502 -0.11255956 -0.07317345
000120 e8 e0 da 3d 00 3e e8 3c a4 39 c1 3e ed 76 fa bc
       0.10687429 0.028349876 0.3773929 -0.030574286
000130 11 5c b2 3d 26 d9 e7 b9 7a 57 2f 3c 73 d5 14 be
       0.087089665 -0.00044221542 0.010702008 -0.1453455
000140 52 5c 99 be 45 3d 29 be 3a 54 fe 3d e7 8a 43 be
       -0.29953247 -0.16527279 0.12418409 -0.19095956
000150 83 43 41 3e a2 ad 16 be b1 e8 b9 bd 09 47 82 3d
       0.1887341 -0.14714673 -0.090775855 0.06361205
000160 b4 be 83 3d fb a3 7d 3c ff 50 89 3e 92 ee 58 be
       0.06432858 0.0154809905 0.26819608 -0.21184757
000170 a2 c1 b0 3e 39 30 2c 3e e9 a9 1a be fc e5 e2 3d
       0.3452273 0.1681527 -0.15103878 0.11079022
000180 b0 7c 84 3d 70 69 cb bd 41 d3 20 bd dc 4e 52 bc
       0.06469095 -0.0993222 -0.039263967 -0.012836184
000190 41 e6 97 3d 80 6e 47 bc 6d 14 92 be bf 2c 9f b9
       0.07416964 -0.012172341 -0.2853121 -0.00030360182
0001a0 fd a9 60 bd ed fa 86 be e9 17 f2 bd 7d 78 fe bc
       -0.054849613 -0.26363316 -0.11820967 -0.031063313
0001b0 3a 80 3b 3d e9 b6 69 3c a9 5d 7c be d6 73 89 bd
       0.045776583 0.014264801 -0.24645104 -0.06711547
0001c0 2f 4c 37 3d ee 64 85 3c 29 e8 4f bd e8 25 59 be
       0.04475039 0.016283479 -0.050758515 -0.21205866
0001d0 8a e7 5b 3e b8 6f 03 3e 43 26 08 3e ba 9b 96 bd
       0.21475044 0.12835586 0.13295846 -0.07353921
0001e0 ed e7 8f bd 79 05 c7 3d f9 c8 61 3d 51 77 4a bd
       -0.07026658 0.09717841 0.055123303 -0.049430195
0001f0 63 36 d7 3d 15 96 d9 3d 19 a8 2b be f9 44 f6 3c
       0.1050842 0.10624329 -0.16763343 0.030062186
000200 63 ff a2 3c fe 26 f7 bd 11 6d 2b be 02 9a a1 3e
       0.019897169 -0.12067984 -0.16740824 0.3156281
000210 3e bc 4e 3d a2 7f 7c bd 9b 55 82 bd 0e 72 e6 3d
       0.05047249 -0.061645158 -0.06363984 0.11252223
000220 bd a8 22 3d c6 3a 90 3d 29 63 1d 3d 56 39 7e bc
       0.039711703 0.0704246 0.038424645 -0.0155166
000230 d4 79 90 3d f7 53 00 be e7 aa d8 bc a1 0a 2c 3d
       0.07054487 -0.1253203 -0.02644868 0.042002324
000240 75 44 8a be ad 5a 16 3e 12 d0 2a 3d f6 ea 60 3d
       -0.27005354 0.14683028 0.041702338 0.054911576
000250 0d 8e 2c be 0e 5a 11 be 3b 2c 03 3e 86 96 aa bd
       -0.16851063 -0.1419451 0.12809841 -0.08329491
000260 01 5d 11 be ba 0a f1 3c 85 14 1a be fa af 14 be
       -0.14195634 0.02942406 -0.1504689 -0.14520255
000270 d3 e4 8a bd d2 e6 13 be 0c 17 1e 3e 60 58 01 be
       -0.06781926 -0.1444352 0.15438479 -0.12631369
000280 7e 79 fb bd 7c 4d 91 be bf dc c8 bd e9 e2 12 3d
       -0.12279032 -0.28379428 -0.09807729 0.03586093
000290 76 17 84 3d 9c 31 d9 3d 91 60 3f bd 3a 5c 3d 3d
       0.06449787 0.10605165 -0.046722952 0.046230532
0002a0 06 c8 76 bd b0 ea 7e 3d 6c d4 48 bd 54 f1 9a 3d
       -0.06024935 0.062235534 -0.049030706 0.07565561
0002b0 92 8f f4 3d 6d c8 e1 3d f0 56 7a be 1b ef 86 3d
       0.11941446 0.11024556 -0.24447227 0.065885745
0002c0 06 75 de bd dc 52 1f be 00 40 ee bd 56 57 15 be
       -0.10862164 -0.15558952 -0.11633301 -0.14584097
0002d0 a1 94 a3 3e e9 69 3e 3d 36 b5 4d 3d a6 2e 11 be
       0.31949332 0.046487723 0.050221644 -0.14177951
0002e0 09 a1 4f 3d 9d b9 91 3c c4 f5 8c 3c 68 d3 09 3d
       0.050690684 0.017788703 0.017207034 0.03364888
0002f0 4a b3 64 bd 06 ed 52 be af 96 b5 bd cd c7 fe bd
       -0.055835046 -0.2059823 -0.08866631 -0.12440453
000300 43 46 86 3e 01 13 90 bd cf dc a6 bd 2c ad 03 bd
       0.2622548 -0.07034875 -0.08147585 -0.03214757
000310 40 8f 69 3e 5f 64 2a bc 84 da f5 bd 65 3a c3 bd
       0.22808552 -0.010399907 -0.12004569 -0.09532622
000320 65 b4 a5 3c d2 44 5f be 4d b8 36 be b8 e6 83 bc
       0.02022762 -0.21803597 -0.17843743 -0.016101226
000330 88 9e 86 3d 89 5a 30 3c 4d 43 c4 3a 2b 0a 67 3b
       0.06573206 0.010763773 0.001497367 0.0035253863
000340 f3 23 a3 bb ad 09 4e be 59 42 e7 bd 12 e3 13 3e
       -0.0049786507 -0.20120879 -0.11291952 0.14442089
000350 17 5f 80 3e 79 fd 17 3e 24 37 8a 3c 5a 6f 93 3d
       0.25072548 0.14842786 0.016871996 0.07198973
000360 23 1d 06 bd 55 b1 02 3d 45 07 a0 3d f5 8f 2d be
       -0.03274263 0.0319074 0.078138866 -0.16949446
000370 be 2e 50 3d 5f c5 89 bc 2b 31 54 3e 66 78 fc bd
       0.050825827 -0.016817747 0.20721881 -0.12327652
000380 96 df bb bc c5 43 a5 bd ac 52 23 3e f9 d2 c7 bd
       -0.022933763 -0.08069567 0.15949506 -0.09757037
000390 50 12 7e be 8c 9c b7 bd c4 61 78 3d 86 6c 29 3e
       -0.24811673 -0.08965406 0.06064011 0.16545305
0003a0 d0 2f ab 3e a7 17 81 bd b8 fd f3 3d 56 a9 ec bd
       0.33434916 -0.063033395 0.119136274 -0.11555736
0003b0 c0 2e 5c bd f8 25 f8 3c 3e 6d d8 3d c2 ea ed 3d
       -0.05375552 0.030291542 0.10567711 0.11617042
0003c0 a2 02 9b 3e 8c 50 be bd 19 65 24 be bd 0d 1f be
       0.30275446 -0.09292707 -0.1605419 -0.15532584
0003d0 28 b6 a2 be d3 df 91 bc de f7 04 3e b1 a7 eb bd
       -0.317796 -0.017806923 0.12985179 -0.11506594
0003e0 b2 99 c7 bd 81 90 94 3c a3 ab d6 bd 63 b9 6d 3d
       -0.09746112 0.018135311 -0.10481956 0.058038127
0003f0 0b 6b b5 bc e8 c2 81 be d7 cc cb 3c 28 84 0b 3d
       -0.022145769 -0.25344014 0.024877949 0.03406158

9.bias f4 [10]
000000 77 62 88 bc 5e 40 b2 bd b2 1c b9 bd e1 8f ca bc
       -0.016648514 -0.08703683 -0.09038676 -0.02472681
000010 ea bc 4a 3d 1d f7 f9 3c 1e 6e 01 bc 66 5f 9e bb
       0.04949657 0.03051334 -0.007899789 -0.0048331497
000020 55 3b 89 bc ea 95 9f bd
       -0.016751925 -0.07792266

11.weight f4 [1, 10]
000000 1d 0f b3 3e 93 4e 70 be 3f 8b 70 3e 18 cb f4 3d
       0.34972468 -0.23467474 0.23490618 0.119527996
000010 3d fa 92 3f 20 48 a7 be 9c 62 dd 3c 13 ce 82 3e
       1.1482617 -0.32672215 0.02702456 0.25547847
000020 59 8d bf 3f 82 69 47 bd
       1.4965011 -0.048684604
